…
2020-09-01T01:22:38+0000:20:Classes - Voice Command Languages:
  0: maninka
  1: pular
  2: susu
2020-09-01T01:22:38+0000:20:Classes - Speaker Mothertongues:
  0: maninka
  1: pular
  2: susu
2020-09-01T01:22:38+0000:20:Classes - Speaker Gender
2020-09-01T01:22:38+0000:20:  0: F
2020-09-01T01:22:38+0000:20:  1: M
2020-09-01T01:22:58+0000:20:Model Summary :
-----------------------------------------------------------------------
      Layer (type)        Output Shape         Param #     Tr. Param #
=======================================================================
          Conv1d-1        [10, 8, 200]           1,032           1,032
          Conv1d-2       [10, 16, 198]             400             400
         Dropout-3       [10, 16, 198]               0               0
       AvgPool1d-4        [10, 16, 99]               0               0
          Conv1d-5        [10, 32, 97]           1,568           1,568
         Dropout-6        [10, 32, 97]               0               0
       AvgPool1d-7        [10, 32, 48]               0               0
          Conv1d-8        [10, 64, 46]           6,208           6,208
         Dropout-9        [10, 64, 46]               0               0
      AvgPool1d-10        [10, 64, 23]               0               0
         Conv1d-11       [10, 128, 21]          24,704          24,704
        Dropout-12       [10, 128, 21]               0               0
      AvgPool1d-13       [10, 128, 10]               0               0
        Dropout-14           [10, 224]               0               0
         Linear-15           [10, 105]          23,625          23,625
=======================================================================
Total params: 57,537
Trainable params: 57,537
Non-trainable params: 0
-----------------------------------------------------------------------
2020-09-01T01:22:58+0000:20:train_n: 2766
2020-09-01T01:22:58+0000:20:test_n: 1179
2020-09-01T01:22:58+0000:10:Using cuda device: cuda:1
2020-09-01T01:22:58+0000:10:Using cuda device: cuda:1
…
