…
2020-09-01T00:30:13+0000:20:Classes - Voice Command Languages:
  0: _language_independent
  1: francais
  2: maninka
  3: pular
  4: susu
2020-09-01T00:30:13+0000:20:Classes - Speaker Mothertongues:
  0: maninka
  1: pular
  2: susu
2020-09-01T00:30:13+0000:20:Classes - Speaker Gender
2020-09-01T00:30:13+0000:20:  0: F
2020-09-01T00:30:13+0000:20:  1: M
2020-09-01T00:30:56+0000:20:Model Summary :
-----------------------------------------------------------------------
      Layer (type)        Output Shape         Param #     Tr. Param #
=======================================================================
          Conv1d-1       [10, 16, 200]           2,064           2,064
          Conv1d-2       [10, 32, 198]           1,568           1,568
         Dropout-3       [10, 32, 198]               0               0
       AvgPool1d-4        [10, 32, 99]               0               0
          Conv1d-5        [10, 64, 97]           6,208           6,208
         Dropout-6        [10, 64, 97]               0               0
       AvgPool1d-7        [10, 64, 48]               0               0
          Conv1d-8       [10, 128, 46]          24,704          24,704
         Dropout-9       [10, 128, 46]               0               0
      AvgPool1d-10       [10, 128, 23]               0               0
         Conv1d-11       [10, 256, 21]          98,560          98,560
        Dropout-12       [10, 256, 21]               0               0
      AvgPool1d-13       [10, 256, 10]               0               0
        Dropout-14           [10, 448]               0               0
         Linear-15           [10, 105]          47,145          47,145
=======================================================================
Total params: 180,249
Trainable params: 180,249
Non-trainable params: 0
-----------------------------------------------------------------------
2020-09-01T00:30:56+0000:20:train_n: 6018
2020-09-01T00:30:56+0000:20:test_n: 2259
2020-09-01T00:30:56+0000:10:Using cuda device: cuda:1
2020-09-01T00:30:57+0000:10:Using cuda device: cuda:1
…
